…
You should probably TRAIN this model on a down-stream task to be able to use it for predictions and inference.
You're using a XLMRobertaTokenizerFast tokenizer. Please note that with a fast tokenizer, using the `__call__` method is faster than using a method to encode the text followed by a call to the `pad` method to get a padded encoding.
Definindo configs...
> USING DEVICE cuda
trainable params: 1,058,505 || all params: 279,256,722 || trainable%: 0.3790
PeftModelForSequenceClassification(
  (base_model): LoraModel(
    (model): XLMRobertaForSequenceClassification(
      (roberta): XLMRobertaModel(
        (embeddings): XLMRobertaEmbeddings(
          (word_embeddings): Embedding(250002, 768, padding_idx=1)
          (position_embeddings): Embedding(514, 768, padding_idx=1)
          (token_type_embeddings): Embedding(1, 768)
          (LayerNorm): LayerNorm((768,), eps=1e-05, elementwise_affine=True)
          (dropout): Dropout(p=0.1, inplace=False)
        )
        (encoder): XLMRobertaEncoder(
          (layer): ModuleList(
            (0-11): 12 x XLMRobertaLayer(
              (attention): XLMRobertaAttention(
                (self): XLMRobertaSelfAttention(
                  (query): lora.Linear(
                    (base_layer): Linear(in_features=768, out_features=768, bias=True)
                    (lora_dropout): ModuleDict(
                      (default): Dropout(p=0.2, inplace=False)
                    )
                    (lora_A): ModuleDict(
                      (default): Linear(in_features=768, out_features=8, bias=False)
                    )
                    (lora_B): ModuleDict(
                      (default): Linear(in_features=8, out_features=768, bias=False)
                    )
                    (lora_embedding_A): ParameterDict()
                    (lora_embedding_B): ParameterDict()
                    (lora_magnitude_vector): ParameterDict(  (default): Parameter containing: [torch.FloatTensor of size 768])
                  )
                  (key): Linear(in_features=768, out_features=768, bias=True)
                  (value): lora.Linear(
                    (base_layer): Linear(in_features=768, out_features=768, bias=True)
                    (lora_dropout): ModuleDict(
                      (default): Dropout(p=0.2, inplace=False)
                    )
                    (lora_A): ModuleDict(
                      (default): Linear(in_features=768, out_features=8, bias=False)
                    )
                    (lora_B): ModuleDict(
                      (default): Linear(in_features=8, out_features=768, bias=False)
                    )
                    (lora_embedding_A): ParameterDict()
                    (lora_embedding_B): ParameterDict()
                    (lora_magnitude_vector): ParameterDict(  (default): Parameter containing: [torch.FloatTensor of size 768])
                  )
                  (dropout): Dropout(p=0.1, inplace=False)
                )
                (output): XLMRobertaSelfOutput(
                  (dense): Linear(in_features=768, out_features=768, bias=True)
                  (LayerNorm): LayerNorm((768,), eps=1e-05, elementwise_affine=True)
                  (dropout): Dropout(p=0.1, inplace=False)
                )
              )
              (intermediate): XLMRobertaIntermediate(
                (dense): Linear(in_features=768, out_features=3072, bias=True)
                (intermediate_act_fn): GELUActivation()
              )
              (output): XLMRobertaOutput(
                (dense): Linear(in_features=3072, out_features=768, bias=True)
                (LayerNorm): LayerNorm((768,), eps=1e-05, elementwise_affine=True)
                (dropout): Dropout(p=0.1, inplace=False)
              )
            )
          )
        )
      )
      (classifier): ModulesToSaveWrapper(
        (original_module): XLMRobertaClassificationHead(
          (dense): Linear(in_features=768, out_features=768, bias=True)
          (dropout): Dropout(p=0.1, inplace=False)
          (out_proj): Linear(in_features=768, out_features=201, bias=True)
        )
        (modules_to_save): ModuleDict(
          (default): XLMRobertaClassificationHead(
            (dense): Linear(in_features=768, out_features=768, bias=True)
            (dropout): Dropout(p=0.1, inplace=False)
            (out_proj): Linear(in_features=768, out_features=201, bias=True)
          )
        )
      )
    )
  )
)
  0%|          | 0/539 [00:00<?, ?it/s]  0%|          | 1/539 [00:00<01:21,  6.61it/s]  1%|          | 3/539 [00:00<00:51, 10.51it/s]  1%|          | 5/539 [00:00<00:46, 11.38it/s]  1%|▏         | 7/539 [00:00<00:45, 11.77it/s]  2%|▏         | 9/539 [00:00<00:44, 11.94it/s]  2%|▏         | 11/539 [00:00<
…
