…
You should probably TRAIN this model on a down-stream task to be able to use it for predictions and inference.
You're using a RobertaTokenizerFast tokenizer. Please note that with a fast tokenizer, using the `__call__` method is faster than using a method to encode the text followed by a call to the `pad` method to get a padded encoding.
Training fold 1...
trainable params: 1,919,009 || all params: 357,312,578 || trainable%: 0.5371
PeftModelForSequenceClassification(
  (base_model): LoraModel(
    (model): RobertaForSequenceClassification(
      (roberta): RobertaModel(
        (embeddings): RobertaEmbeddings(
          (word_embeddings): Embedding(50265, 1024, padding_idx=1)
          (position_embeddings): Embedding(514, 1024, padding_idx=1)
          (token_type_embeddings): Embedding(1, 1024)
          (LayerNorm): LayerNorm((1024,), eps=1e-05, elementwise_affine=True)
          (dropout): Dropout(p=0.1, inplace=False)
        )
        (encoder): RobertaEncoder(
          (layer): ModuleList(
            (0-23): 24 x RobertaLayer(
              (attention): RobertaAttention(
                (self): RobertaSelfAttention(
                  (query): lora.Linear(
                    (base_layer): Linear(in_features=1024, out_features=1024, bias=True)
                    (lora_dropout): ModuleDict(
                      (default): Dropout(p=0.1, inplace=False)
                    )
                    (lora_A): ModuleDict(
                      (default): Linear(in_features=1024, out_features=8, bias=False)
                    )
                    (lora_B): ModuleDict(
                      (default): Linear(in_features=8, out_features=1024, bias=False)
                    )
                    (lora_embedding_A): ParameterDict()
                    (lora_embedding_B): ParameterDict()
                    (lora_magnitude_vector): ParameterDict(  (default): Parameter containing: [torch.FloatTensor of size 1024])
                  )
                  (key): Linear(in_features=1024, out_features=1024, bias=True)
                  (value): lora.Linear(
                    (base_layer): Linear(in_features=1024, out_features=1024, bias=True)
                    (lora_dropout): ModuleDict(
                      (default): Dropout(p=0.1, inplace=False)
                    )
                    (lora_A): ModuleDict(
                      (default): Linear(in_features=1024, out_features=8, bias=False)
                    )
                    (lora_B): ModuleDict(
                      (default): Linear(in_features=8, out_features=1024, bias=False)
                    )
                    (lora_embedding_A): ParameterDict()
                    (lora_embedding_B): ParameterDict()
                    (lora_magnitude_vector): ParameterDict(  (default): Parameter containing: [torch.FloatTensor of size 1024])
                  )
                  (dropout): Dropout(p=0.1, inplace=False)
                )
                (output): RobertaSelfOutput(
                  (dense): Linear(in_features=1024, out_features=1024, bias=True)
                  (LayerNorm): LayerNorm((1024,), eps=1e-05, elementwise_affine=True)
                  (dropout): Dropout(p=0.1, inplace=False)
                )
              )
              (intermediate): RobertaIntermediate(
                (dense): Linear(in_features=1024, out_features=4096, bias=True)
                (intermediate_act_fn): GELUActivation()
              )
              (output): RobertaOutput(
                (dense): Linear(in_features=4096, out_features=1024, bias=True)
                (LayerNorm): LayerNorm((1024,), eps=1e-05, elementwise_affine=True)
                (dropout): Dropout(p=0.1, inplace=False)
              )
            )
          )
        )
      )
      (classifier): ModulesToSaveWrapper(
        (original_module): RobertaClassificationHead(
          (dense): Linear(in_features=1024, out_features=1024, bias=True)
          (dropout): Dropout(p=0.1, inplace=False)
          (out_proj): Linear(in_features=1024, out_features=33, bias=True)
        )
        (modules_to_save): ModuleDict(
          (default): RobertaClassificationHead(
            (dense): Linear(in_features=1024, out_features=1024, bias=True)
            (dropout): Dropout(p=0.1, inplace=False)
            (out_proj): Linear(in_features=1024, out_features=33, bias=True)
          )
        )
      )
    )
  )
)
  0%|          | 0/336 [00:00<?, ?it/s]  0%|          | 1/336 [00:00<02:18,  2.42it/s]  1%|          | 2/336 [00:00<01:50,  3.01it/s]  1%|          | 3/336 [00:00<01:41,  3.29it/s]  1%|          | 4/336 [00:01<01:36,  3.45it/s]  1%|▏         | 5/336 [00:01<01:34,  3.51it/s]  2%|▏         | 6/336 [00:01<0
…
