…
You should probably TRAIN this model on a down-stream task to be able to use it for predictions and inference.
You're using a BertTokenizerFast tokenizer. Please note that with a fast tokenizer, using the `__call__` method is faster than using a method to encode the text followed by a call to the `pad` method to get a padded encoding.
trainable params: 869,409 || all params: 335,299,650 || trainable%: 0.2593
PeftModelForSequenceClassification(
  (base_model): LoraModel(
    (model): BertForSequenceClassification(
      (bert): BertModel(
        (embeddings): BertEmbeddings(
          (word_embeddings): Embedding(29794, 1024, padding_idx=0)
          (position_embeddings): Embedding(512, 1024)
          (token_type_embeddings): Embedding(2, 1024)
          (LayerNorm): LayerNorm((1024,), eps=1e-12, elementwise_affine=True)
          (dropout): Dropout(p=0.1, inplace=False)
        )
        (encoder): BertEncoder(
          (layer): ModuleList(
            (0-23): 24 x BertLayer(
              (attention): BertAttention(
                (self): BertSelfAttention(
                  (query): lora.Linear(
                    (base_layer): Linear(in_features=1024, out_features=1024, bias=True)
                    (lora_dropout): ModuleDict(
                      (default): Dropout(p=0.1, inplace=False)
                    )
                    (lora_A): ModuleDict(
                      (default): Linear(in_features=1024, out_features=8, bias=False)
                    )
                    (lora_B): ModuleDict(
                      (default): Linear(in_features=8, out_features=1024, bias=False)
                    )
                    (lora_embedding_A): ParameterDict()
                    (lora_embedding_B): ParameterDict()
                    (lora_magnitude_vector): ParameterDict(  (default): Parameter containing: [torch.FloatTensor of size 1024])
                  )
                  (key): Linear(in_features=1024, out_features=1024, bias=True)
                  (value): lora.Linear(
                    (base_layer): Linear(in_features=1024, out_features=1024, bias=True)
                    (lora_dropout): ModuleDict(
                      (default): Dropout(p=0.1, inplace=False)
                    )
                    (lora_A): ModuleDict(
                      (default): Linear(in_features=1024, out_features=8, bias=False)
                    )
                    (lora_B): ModuleDict(
                      (default): Linear(in_features=8, out_features=1024, bias=False)
                    )
                    (lora_embedding_A): ParameterDict()
                    (lora_embedding_B): ParameterDict()
                    (lora_magnitude_vector): ParameterDict(  (default): Parameter containing: [torch.FloatTensor of size 1024])
                  )
                  (dropout): Dropout(p=0.1, inplace=False)
                )
                (output): BertSelfOutput(
                  (dense): Linear(in_features=1024, out_features=1024, bias=True)
                  (LayerNorm): LayerNorm((1024,), eps=1e-12, elementwise_affine=True)
                  (dropout): Dropout(p=0.1, inplace=False)
                )
              )
              (intermediate): BertIntermediate(
                (dense): Linear(in_features=1024, out_features=4096, bias=True)
                (intermediate_act_fn): GELUActivation()
              )
              (output): BertOutput(
                (dense): Linear(in_features=4096, out_features=1024, bias=True)
                (LayerNorm): LayerNorm((1024,), eps=1e-12, elementwise_affine=True)
                (dropout): Dropout(p=0.1, inplace=False)
              )
            )
          )
        )
        (pooler): BertPooler(
          (dense): Linear(in_features=1024, out_features=1024, bias=True)
          (activation): Tanh()
        )
      )
      (dropout): Dropout(p=0.1, inplace=False)
      (classifier): ModulesToSaveWrapper(
        (original_module): Linear(in_features=1024, out_features=33, bias=True)
        (modules_to_save): ModuleDict(
          (default): Linear(in_features=1024, out_features=33, bias=True)
        )
      )
    )
  )
)
  0%|          | 0/503 [00:00<?, ?it/s]  0%|          | 1/503 [00:00<03:08,  2.67it/s]  0%|          | 2/503 [00:00<02:45,  3.02it/s]  1%|          | 3/503 [00:00<02:23,  3.49it/s]  1%|          | 4/503 [00:01<02:18,  3.61it/s]  1%|          | 5/503 [00:01<02:21,  3.51it/s]  1%|          | 6/503 [00:01<02:23,  3.45i
…
